…
Data(edge_index=[2, 132], edge_attr=[132, 2], x=[32, 14887], y=[1, 1], num_nodes=32)
========================training times:0========================
========================k_idx:0========================
Extracting 1-hop subgraphs...
Done!
Extracting 1-hop subgraphs...
Done!
Extracting 1-hop subgraphs...
Done!
Extracting 1-hop subgraphs...
Done!
/opt/conda/envs/SAMZX/lib/python3.10/site-packages/torch_geometric/deprecation.py:26: UserWarning: 'data.DataLoader' is deprecated, use 'loader.DataLoader' instead
  warnings.warn(out)
Model: SAMamba
GraphEncoder(
  (subgraph_conv): GATConv(64, 64, heads=1)
  (embedding): Linear(in_features=14887, out_features=64, bias=False)
  (encoder): GraphMambaEncoder(
    (layers): ModuleList(
      (0-1): 2 x MambaEncoderLayer(
        (self_selen): Selection(
          (khop_structure_extractor): KHopStructureExtractor(
            (structure_extractor): StructureExtractor(
              (gcn): ModuleList(
                (0): GATConv(64, 64, heads=1)
              )
              (relu): ReLU()
              (bn): BatchNorm1d(64, eps=1e-05, momentum=0.1, affine=True, track_running_stats=True)
              (out_proj): Linear(in_features=64, out_features=64, bias=True)
            )
            (bn): BatchNorm1d(128, eps=1e-05, momentum=0.1, affine=True, track_running_stats=True)
            (out_proj): Linear(in_features=128, out_features=64, bias=True)
          )
          (out_proj): Mamba(
            (in_proj): Linear(in_features=64, out_features=256, bias=False)
            (conv1d): Conv1d(128, 128, kernel_size=(4,), stride=(1,), padding=(3,), groups=128)
            (act): SiLU()
            (x_proj): Linear(in_features=128, out_features=36, bias=False)
            (dt_proj): Linear(in_features=4, out_features=128, bias=True)
            (out_proj): Linear(in_features=128, out_features=64, bias=False)
          )
        )
        (norm1): BatchNorm1d(64, eps=1e-05, momentum=0.1, affine=True, track_running_stats=True)
        (norm2): BatchNorm1d(64, eps=1e-05, momentum=0.1, affine=True, track_running_stats=True)
        (linear1): Linear(in_features=64, out_features=128, bias=True)
        (dropout): Dropout(p=0.5, inplace=False)
        (linear2): Linear(in_features=128, out_features=64, bias=True)
        (dropout1): Dropout(p=0.5, inplace=False)
        (dropout2): Dropout(p=0.5, inplace=False)
        (activation): ReLU()
      )
    )
  )
  (classifier): Sequential(
    (0): Linear(in_features=64, out_features=64, bias=True)
    (1): ReLU(inplace=True)
    (2): Linear(in_features=64, out_features=2, bias=True)
  )
)
Extracting 1-hop subgraphs...
Done!
<torch_geometric.deprecation.DataLoader object at 0x79c4424f3700>
Training...
Epoch 1/1000, LR 0.000500
Train loss: 0.7278;  Loss pred: 0.7192; Loss self: 0.8584; time: 0.37s
/opt/conda/envs/SAMZX/lib/python3.10/site-packages/sklearn/metrics/_classification.py:1565: UndefinedMetricWarning: Precision is ill-defined and being set to 0.0 in labels with no predicted samples. Use `zero_division` parameter to control this behavior.
…
