…
Data(edge_index=[2, 174], edge_attr=[174, 2], x=[44, 14887], y=[1, 1], num_nodes=48)
========================training times:0========================
========================k_idx:0========================
Extracting 1-hop subgraphs...
Done!
Extracting 1-hop subgraphs...
Done!
Extracting 1-hop subgraphs...
Done!
Extracting 1-hop subgraphs...
Done!
/opt/conda/envs/SAMamba/lib/python3.10/site-packages/torch_geometric/deprecation.py:26: UserWarning: 'data.DataLoader' is deprecated, use 'loader.DataLoader' instead
  warnings.warn(out)
emb dim:  64
Model: Ethident
Ethident(
  (encoder): HGATE_encoder(
    (lin1): Linear(in_features=14887, out_features=64, bias=True)
    (account_convs): ModuleList(
      (0): GATEConv()
      (1): GATConv(64, 64, heads=1)
    )
    (subgraph_conv): GATConv(64, 64, heads=1)
    (lin2): Linear(in_features=64, out_features=64, bias=True)
    (lin3): Linear(in_features=64, out_features=2, bias=True)
  )
  (proj_head_g1): Project_Head(
    (block): Sequential(
      (0): Linear(in_features=64, out_features=64, bias=True)
      (1): LayerNorm((64,), eps=1e-05, elementwise_affine=True)
      (2): ReLU()
      (3): Linear(in_features=64, out_features=64, bias=True)
      (4): LayerNorm((64,), eps=1e-05, elementwise_affine=True)
      (5): ReLU()
    )
    (linear_shortcut): Linear(in_features=64, out_features=64, bias=True)
  )
  (proj_head_g2): Project_Head(
    (block): Sequential(
      (0): Linear(in_features=64, out_features=64, bias=True)
      (1): LayerNorm((64,), eps=1e-05, elementwise_affine=True)
      (2): ReLU()
      (3): Linear(in_features=64, out_features=64, bias=True)
      (4): LayerNorm((64,), eps=1e-05, elementwise_affine=True)
      (5): ReLU()
    )
    (linear_shortcut): Linear(in_features=64, out_features=64, bias=True)
  )
  (classifier): Sequential(
    (0): Linear(in_features=64, out_features=64, bias=True)
    (1): ReLU()
    (2): Dropout(p=0.0, inplace=True)
    (3): Linear(in_features=64, out_features=2, bias=True)
  )
)
Total number of parameters: 1003972
Extracting 1-hop subgraphs...
Done!
<torch_geometric.deprecation.DataLoader object at 0x70bc4b79e020>
Training...
Epoch 1/1000, LR 0.000300
Train loss: 0.9234;  Loss pred: 0.8865; Loss self: 3.6873; time: 0.62s
/opt/conda/envs/SAMamba/lib/python3.10/site-packages/sklearn/metrics/_classification.py:1471: UndefinedMetricWarning: Precision is ill-defined and being set to 0.0 in labels with no predicted samples. Use `zero_division` parameter to control this behavior.
…
