…
Data(edge_index=[2, 346], edge_attr=[346, 2], x=[111, 14887], y=[1, 1], num_nodes=125)
========================training times:0========================
========================k_idx:0========================
Extracting 1-hop subgraphs...
Done!
Extracting 1-hop subgraphs...
Done!
Extracting 1-hop subgraphs...
Done!
Extracting 1-hop subgraphs...
Done!
/opt/conda/envs/SAMamba/lib/python3.10/site-packages/torch_geometric/deprecation.py:26: UserWarning: 'data.DataLoader' is deprecated, use 'loader.DataLoader' instead
  warnings.warn(out)
emb dim:  64
Model: Ethident
Ethident(
  (encoder): HGATE_encoder(
    (lin1): Linear(in_features=14887, out_features=64, bias=True)
    (account_convs): ModuleList(
      (0): GATEConv()
      (1): GATConv(64, 64, heads=1)
    )
    (subgraph_conv): GATConv(64, 64, heads=1)
    (lin2): Linear(in_features=64, out_features=64, bias=True)
    (lin3): Linear(in_features=64, out_features=2, bias=True)
  )
  (proj_head_g1): Project_Head(
    (block): Sequential(
      (0): Linear(in_features=64, out_features=64, bias=True)
      (1): BatchNorm1d(64, eps=1e-05, momentum=0.1, affine=True, track_running_stats=True)
      (2): ReLU()
      (3): Linear(in_features=64, out_features=64, bias=True)
      (4): BatchNorm1d(64, eps=1e-05, momentum=0.1, affine=True, track_running_stats=True)
      (5): ReLU()
    )
    (linear_shortcut): Linear(in_features=64, out_features=64, bias=True)
  )
  (proj_head_g2): Project_Head(
    (block): Sequential(
      (0): Linear(in_features=64, out_features=64, bias=True)
      (1): BatchNorm1d(64, eps=1e-05, momentum=0.1, affine=True, track_running_stats=True)
      (2): ReLU()
      (3): Linear(in_features=64, out_features=64, bias=True)
      (4): BatchNorm1d(64, eps=1e-05, momentum=0.1, affine=True, track_running_stats=True)
      (5): ReLU()
    )
    (linear_shortcut): Linear(in_features=64, out_features=64, bias=True)
  )
  (classifier): Sequential(
    (0): Linear(in_features=64, out_features=64, bias=True)
    (1): ReLU()
    (2): Dropout(p=0.0, inplace=True)
    (3): Linear(in_features=64, out_features=2, bias=True)
  )
)
Extracting 1-hop subgraphs...
Done!
<torch_geometric.deprecation.DataLoader object at 0x777be177c610>
Training...
Epoch 1/1000, LR 0.000300
Train loss: 0.8905;  Loss pred: 0.8695; Loss self: 2.1034; time: 8.26s
Val loss: 0.7816 score: 0.3893 time: 2.51s
Test loss: 0.7842 score: 0.3882 time: 2.73s
Epoch 2/1000, LR 0.000029
Train loss: 0.7299;  Loss pred: 0.7098; Loss self: 2.0025; time: 6.27s
…
