…
Data(edge_index=[2, 306], edge_attr=[306, 2], x=[90, 14887], y=[1, 1], num_nodes=99)
========================training times:0========================
========================k_idx:0========================
Extracting 1-hop subgraphs...
Done!
Extracting 1-hop subgraphs...
Done!
Extracting 1-hop subgraphs...
Done!
Extracting 1-hop subgraphs...
Done!
/opt/conda/envs/SAMamba/lib/python3.10/site-packages/torch_geometric/deprecation.py:26: UserWarning: 'data.DataLoader' is deprecated, use 'loader.DataLoader' instead
  warnings.warn(out)
emb dim:  64
Model: Ethident
Ethident(
  (encoder): HGATE_encoder(
    (lin1): Linear(in_features=14887, out_features=64, bias=True)
    (account_convs): ModuleList(
      (0): GATEConv()
      (1): GATConv(64, 64, heads=1)
    )
    (subgraph_conv): GATConv(64, 64, heads=1)
    (lin2): Linear(in_features=64, out_features=64, bias=True)
    (lin3): Linear(in_features=64, out_features=2, bias=True)
  )
  (proj_head_g1): Project_Head(
    (block): Sequential(
      (0): Linear(in_features=64, out_features=64, bias=True)
      (1): LayerNorm((64,), eps=1e-05, elementwise_affine=True)
      (2): ReLU()
      (3): Linear(in_features=64, out_features=64, bias=True)
      (4): LayerNorm((64,), eps=1e-05, elementwise_affine=True)
      (5): ReLU()
    )
    (linear_shortcut): Linear(in_features=64, out_features=64, bias=True)
  )
  (proj_head_g2): Project_Head(
    (block): Sequential(
      (0): Linear(in_features=64, out_features=64, bias=True)
      (1): LayerNorm((64,), eps=1e-05, elementwise_affine=True)
      (2): ReLU()
      (3): Linear(in_features=64, out_features=64, bias=True)
      (4): LayerNorm((64,), eps=1e-05, elementwise_affine=True)
      (5): ReLU()
    )
    (linear_shortcut): Linear(in_features=64, out_features=64, bias=True)
  )
  (classifier): Sequential(
    (0): Linear(in_features=64, out_features=64, bias=True)
    (1): ReLU()
    (2): Dropout(p=0.0, inplace=True)
    (3): Linear(in_features=64, out_features=2, bias=True)
  )
)
Total number of parameters: 1003972
Extracting 1-hop subgraphs...
Done!
<torch_geometric.deprecation.DataLoader object at 0x7a49927ee080>
Training...
Epoch 1/1000, LR 0.000300
Train loss: 0.8953;  Loss pred: 0.8650; Loss self: 3.0331; time: 0.54s
Val loss: 0.8998 score: 0.2653 time: 0.21s
Test loss: 0.8294 score: 0.3265 time: 0.08s
Epoch 2/1000, LR 0.000000
…
