…
Data(edge_index=[2, 346], edge_attr=[346, 2], x=[111, 14887], y=[1, 1], num_nodes=125)
========================training times:0========================
========================k_idx:0========================
Extracting 1-hop subgraphs...
Done!
Extracting 1-hop subgraphs...
Done!
Extracting 1-hop subgraphs...
Done!
Extracting 1-hop subgraphs...
Done!
/opt/conda/envs/SAMClone/lib/python3.10/site-packages/torch_geometric/deprecation.py:26: UserWarning: 'data.DataLoader' is deprecated, use 'loader.DataLoader' instead
  warnings.warn(out)
Model: SAMamba
GraphEncoder(
  (subgraph_conv): GATConv(64, 64, heads=1)
  (embedding): Linear(in_features=14887, out_features=64, bias=False)
  (encoder): GraphMambaEncoder(
    (layers): ModuleList(
      (0-1): 2 x MambaEncoderLayer(
        (self_selen): Selection(
          (khop_structure_extractor): KHopStructureExtractor(
            (structure_extractor): StructureExtractor(
              (gcn): ModuleList(
                (0): GATConv(64, 64, heads=1)
              )
              (relu): ReLU()
              (bn): BatchNorm1d(64, eps=1e-05, momentum=0.1, affine=True, track_running_stats=True)
              (out_proj): Linear(in_features=64, out_features=64, bias=True)
            )
            (bn): BatchNorm1d(128, eps=1e-05, momentum=0.1, affine=True, track_running_stats=True)
            (out_proj): Linear(in_features=128, out_features=64, bias=True)
          )
          (out_proj): Mamba(
            (in_proj): Linear(in_features=64, out_features=256, bias=False)
            (conv1d): Conv1d(128, 128, kernel_size=(4,), stride=(1,), padding=(3,), groups=128)
            (act): SiLU()
            (x_proj): Linear(in_features=128, out_features=36, bias=False)
            (dt_proj): Linear(in_features=4, out_features=128, bias=True)
            (out_proj): Linear(in_features=128, out_features=64, bias=False)
          )
        )
        (norm1): BatchNorm1d(64, eps=1e-05, momentum=0.1, affine=True, track_running_stats=True)
        (norm2): BatchNorm1d(64, eps=1e-05, momentum=0.1, affine=True, track_running_stats=True)
        (linear1): Linear(in_features=64, out_features=128, bias=True)
        (dropout): Dropout(p=0.1, inplace=False)
        (linear2): Linear(in_features=128, out_features=64, bias=True)
        (dropout1): Dropout(p=0.1, inplace=False)
        (dropout2): Dropout(p=0.1, inplace=False)
        (activation): ReLU()
      )
    )
  )
  (classifier): Sequential(
    (0): Linear(in_features=64, out_features=64, bias=True)
    (1): ReLU(inplace=True)
    (2): Linear(in_features=64, out_features=2, bias=True)
  )
)
Extracting 1-hop subgraphs...
Done!
<torch_geometric.deprecation.DataLoader object at 0x72172004bee0>
Training...
Epoch 1/1000, LR 0.000300
Train loss: 0.6799;  Loss pred: 0.6745; Loss self: 0.5340; time: 6.39s
Val loss: 0.6722 score: 0.7834 time: 3.23s
Test loss: 0.6719 score: 0.7840 time: 2.47s
Epoch 2/1000, LR 0.000029
Train loss: 0.5286;  Loss pred: 0.5190; Loss self: 0.9547; time: 4.91s
…
